…
model.compile(optimizer='Adam',
                loss='categorical_crossentropy',
                metrics=['accuracy'])
model.summary(line_length=80)

    1
    2
    3
    4
    5
    6
    7
    8
    9
    10
    11
    12
    13
    14

    1
    2
    3
    4
    5
    6
    7
    8
    9
    10
    11
    12
    13
    14

________________________________________________________________________________
Layer (type)                        Output Shape                    Param #     
================================================================================
conv2d_1 (Conv2D)                   (None, 38, 171, 32)             320         
________________________________________________________________________________
max_pooling2d_1 (MaxPooling2D)      (None, 19, 85, 32)              0           
________________________________________________________________________________
dropout_1 (Dropout)                 (None, 19, 85, 32)              0           
________________________________________________________________________________
conv2d_2 (Conv2D)                   (None, 17, 83, 32)              9248        
________________________________________________________________________________
max_pooling2d_2 (MaxPooling2D)      (None, 8, 41, 32)               0           
________________________________________________________________________________
dropout_2 (Dropout)                 (None, 8, 41, 32)               0           
________________________________________________________________________________
flatten_1 (Flatten)                 (None, 10496)                   0           
________________________________________________________________________________
dense_1 (Dense)                     (None, 10)                      104970      
================================================================================
Total params: 114,538
Trainable params: 114,538
Non-trainable params: 0
________________________________________________________________________________

    1
    2
    3
    4
    5
    6
    7
    8
    9
    10
    11
    12
    13
    14
    15
    16
    17
    18
    19
    20
    21
    22
    23

history = model.fit(train_x, train_y, epochs=10, batch_size=32, validation_data=(val_x, val_y))
…
